Trained Models/VRLmodel.pt (torch, 288289 bytes, 6 tensors)

net.0.weight f4 [256, 147]
000000 8a b0 84 3e b0 d2 ea 3d 75 f8 23 bd 5c 58 77 bc
       0.2591594 0.11465967 -0.04003187 -0.01509675
000010 e7 0d ff 3d 2c 51 e5 bd 55 7e 4e bc ac 12 e3 3e
       0.124538235 -0.11197123 -0.012603362 0.44350183
000020 f5 50 bc 3d 35 53 da 3d 11 9d d6 3b b6 fc 52 3e
       0.09195129 0.10660402 0.0065494855 0.20604214
000030 e8 6d e3 bd 86 b8 b6 3d c4 df 1f 3e d6 81 d8 3d
       -0.11104947 0.08921914 0.15612704 0.10571639
000040 c2 14 4d 3e d2 4b b7 3d 10 5f d7 bd 41 3b ff bd
       0.2002745 0.089500085 -0.105161786 -0.12462474
000050 34 fa e4 3c 6a 5f 94 3d 87 54 74 3e 2b 9c 6f 3e
       0.027951337 0.07244761 0.2386037 0.23399417
000060 c0 d0 a2 3d 95 5b 4e bd 6e 08 54 bd 7f 43 32 3e
       0.07949972 -0.05038031 -0.05176585 0.1740856
000070 91 63 51 3c f0 4e e4 bc 62 48 b2 3b b2 e9 59 bd
       0.012780086 -0.027869672 0.0054407576 -0.053201385
000080 aa f2 9d 3d a5 d8 51 be 0a 18 02 3e 6c 92 36 be
       0.077123 -0.204928 0.12704483 -0.17829293
000090 fa ed 87 3d c3 ed 2a bd fd a9 84 3d 10 33 8e be
       0.06637187 -0.041730653 0.06477735 -0.27773333
0000a0 eb 6a 13 bd 6b 6c bf 3d 3a f2 f3 ba 06 4f f4 bc
       -0.035990637 0.09346851 -0.0018611618 -0.029822838
0000b0 1c 28 0f 3d 72 34 73 be da 96 0f 3d d0 ed f2 3d
       0.03495036 -0.23750475 0.035055973 0.118617654
0000c0 95 64 73 3d 48 7d 63 3d aa 46 1c bd 28 84 02 bd
       0.059422094 0.0555394 -0.038153328 -0.031864315
0000d0 00 0d 5b bb 31 3f 0a bd 00 1a a8 39 20 3d 7a bb
       -0.0033424497 -0.03375167 0.00032062829 -0.0038183406
0000e0 24 25 68 3d 68 33 89 3d 90 13 d5 3b a0 17 be bb
       0.056676045 0.06699258 0.006502576 -0.005801156
0000f0 80 0c a4 bd 02 c1 44 bd 0e e5 f6 bc 4c 92 d4 3c
       -0.08010197 -0.04803563 -0.030138519 0.025948666
000100 d0 25 79 bc 9c 92 8b 3d 22 9e 9b bd 60 c7 f8 3b
       -0.015206769 0.06815073 -0.07598521 0.0075921267
000110 34 ce 21 3d 31 fc 01 bd c7 a0 50 bd e6 a9 89 3d
       0.03950329 -0.03173465 -0.05093458 0.06721859
000120 5e 2b 3f bd d0 95 cf 3c 78 6b 33 bc dc 9e df 3c
       -0.046672218 0.02533999 -0.0109509155 0.02729743
000130 34 2b 50 bd 88 83 0c bd 74 c8 42 3d e4 dc 51 bd
       -0.05082245 -0.034305125 0.04755445 -0.05123605
000140 d8 54 49 bd 20 ae 69 bb 58 e9 80 bd bc a8 99 bc
       -0.04915318 -0.0035656765 -0.06294507 -0.018757217
000150 58 5a a1 3c 96 e4 2a bd f0 41 20 bc c0 72 87 3c
       0.0196964 -0.041721903 -0.009781346 0.01653421
000160 e8 ac 61 bd e8 34 ec 3c 58 72 39 3d c0 f2 46 bd
       -0.055096537 0.028833821 0.045275062 -0.04857135
000170 c2 4a 67 bd c8 43 16 3d bc ca 8c 3d 70 ef 2d bc
       -0.05646778 0.036685735 0.06874606 -0.010616168
000180 35 9c 3f bd 21 bc 02 3e ca 40 8d 3d b0 42 25 bd
       -0.04677983 0.12767078 0.06897123 -0.0403468
000190 65 b0 c6 3d 08 57 8c 3d d3 5b 52 3c 84 8b c5 bd
       0.09701613 0.068525374 0.012839275 -0.09645751
0001a0 15 78 46 be 7e 4d 2d bd 4c df c2 bd 20 3f f3 bd
       -0.19381745 -0.04231023 -0.09515247 -0.118772745
0001b0 57 b5 24 be 66 ae e8 3c 31 e6 5c bc ba 1e 0c bf
       -0.160848 0.028403472 -0.013482616 -0.54734385
0001c0 27 8b 42 be aa 18 02 3d c9 0f 6c be db e3 b4 3d
       -0.18998395 0.031761803 -0.23052897 0.088325225
0001d0 d7 32 e2 be 3a 44 b4 be 1b 27 71 be e8 a4 0c be
       -0.44179413 -0.35208303 -0.23550074 -0.13734782
0001e0 4a 85 82 3d 93 d4 03 bf a0 5a 31 bc fe c2 87 be
       0.06373079 -0.5149624 -0.010824829 -0.26515955
0001f0 e0 dd d5 3c 31 19 15 bd dc 06 7d 3c f0 c2 8b bd
       0.026106775 -0.036400978 0.01544353 -0.06824291
000200 95 08 49 bc cd fb cb be ea 4a 4a be d0 b4 ff bd
       -0.0122701125 -0.39840546 -0.1975514 -0.12485659
000210 3f 6a a0 3d e9 02 35 be a8 9f d5 be 7b 2e dc bd
       0.07832765 -0.17676891 -0.4172337 -0.10751053
000220 02 53 2c bf e3 40 c0 be 73 a5 f2 3d 19 7e 73 be
       -0.6731416 -0.37549505 0.11847963 -0.23778571
000230 82 6e ce be 45 fb a6 bd 04 2b b9 bd d4 25 d3 bd
       -0.40318686 -0.081533946 -0.09041408 -0.103099495
000240 28 eb 42 3c a3 80 2e bc 88 e1 8d 3d fe b0 bb bd
       0.011896886 -0.010650787 0.06927782 -0.09164618
000250 9e ef 3d 3d 0b 2b 4f be 28 3e b6 be e2 28 55 be
       0.046371095 -0.20231263 -0.35594296 -0.20816377
000260 67 28 a6 bc 3f 12 d9 bd c5 5e 0b 3d 35 52 7f 3e
       -0.020282937 -0.10599183 0.034025926 0.24933703
000270 9e 07 20 3d eb 00 de bd 64 10 53 be 80 bd 0c 3e
       0.039069764 -0.10840019 -0.20611721 0.13744164
000280 7a 53 7d be ca ef a2 bd d0 28 2e 3e e4 33 49 be
       -0.24738875 -0.079558924 0.17007756 -0.19648701
000290 2d b0 41 be c7 7d 8d be 72 51 54 be ea 6d 71 3d
       -0.18914862 -0.27635023 -0.20734194 0.058942713
0002a0 03 09 0e 3e d3 89 07 be 82 1f a8 be cf ae 5b be
       0.13870625 -0.1323617 -0.3283654 -0.21453403
0002b0 a3 35 07 be 0b df 9e bd dc 5e 60 be c2 cb 83 bd
       -0.13204055 -0.07757386 -0.21911186 -0.06435348
0002c0 18 cf 33 be 59 bc 27 bd 57 14 97 bc 7e 5e 9d be
       -0.17559469 -0.040951107 -0.018442316 -0.30736154
0002d0 43 c4 cc be 28 b6 71 be 73 54 4a 3e 1a bc 76 bd
       -0.39993486 -0.23604643 0.19758777 -0.06023798
0002e0 16 fa e4 3d ec 01 64 bd 23 e6 13 3e da 1f 33 3e
       0.111805126 -0.055665895 0.14443259 0.17492619
0002f0 6f f2 ec 3e bc be f5 bd 4a 8f 61 bd e5 0c c0 bd
       0.46278712 -0.1199927 -0.05506829 -0.093774594
000300 2e 4b 9a be 61 7a ba be ca 02 6e 3e 8e c8 bb be
       -0.30135483 -0.36421493 0.23243251 -0.3667645
000310 ac 1b 0f 3d be 5b 11 bd 32 de 0c bd 54 e1 5e 3d
       0.0349385 -0.035487883 -0.03439159 0.05441411
000320 e0 62 9c 3c 68 7b 3a bd 77 80 9c bd 1c 0b 38 3d
       0.019090116 -0.045527846 -0.0764169 0.04493247
000330 1f 36 a2 bd 3d a7 2f bd fc a0 b3 3c e6 a2 9c 3d
       -0.07920479 -0.0428841 0.02192735 0.07648258
000340 08 59 c9 3c 98 74 3f bc 00 2d c0 39 60 3a 2f bc
       0.024578586 -0.011685513 0.0003665462 -0.01069507
000350 98 c2 b3 3c 30 2f 8d bb b0 93 04 bc b6 07 bd bc
       0.021943375 -0.0043086037 -0.008091852 -0.023074966
000360 ea 3c 72 bd e0 4e 4d 3d ce 5b 01 3d ec 7e fe 3c
       -0.059140123 0.05012405 0.031581692 0.03106638
000370 b3 9b 96 bd b0 c4 81 bd 68 b0 14 bc 67 2c 1e bd
       -0.07353916 -0.06336343 -0.009075262 -0.038616564
000380 80 d5 12 bc f0 7f 26 bd c2 0a 91 3d 94 15 8a 3d
       -0.008962035 -0.040649354 0.0708213 0.06742397
000390 50 8c 28 bc 1e 23 13 3d 70 0c 0a bd 12 15 8e 3d
       -0.010287359 0.035922162 -0.033703268 0.069376126
0003a0 3a df 9e 3d 18 70 d4 3c f8 45 8f 3d 88 f0 7d 3c
       0.07757421 0.025932357 0.06995767 0.015499242
0003b0 c0 ff e1 3b 46 39 4b bd 8d 1c 11 bd 5a bc 7e bd
       0.006896943 -0.049615167 -0.03542762 -0.062191345
0003c0 74 30 7b 3d 98 1a 44 bc de 54 97 3d 00 2c e7 3a
       0.061325505 -0.011969231 0.07389234 0.0017637014
0003d0 67 01 e3 3c 10 5b 20 3c 29 b5 08 be 9e 28 af 3e
       0.02771063 0.009787336 -0.13350357 0.34210676
0003e0 0f 32 bc be df db 32 3e 98 b3 79 3e f9 8c 90 3e
       -0.36756942 0.17466687 0.24384916 0.28232554
0003f0 61 d9 d1 3c b4 3b b8 be f0 6d a7 be 60 5b 32 be
       0.02561635 -0.3598305 -0.32701063 -0.1741767

net.0.bias f4 [256]
000000 14 24 77 3d 10 e5 bf bd c1 ac 0f be 23 5f fd bd
       0.06033714 -0.09369862 -0.14030744 -0.123716615
000010 f2 7a 14 3d e4 0f 22 bc 99 98 14 3e 5e 76 f0 bb
       0.036250062 -0.009891484 0.14511336 -0.007338329
000020 7c 67 22 3e 94 0d 53 3d 47 64 61 bd 37 8e 1f bd
       0.15859789 0.05152662 -0.055027273 -0.038953986
000030 15 9f 4c 3c 3a a1 49 bd fe 13 a4 3d 79 58 04 3e
       0.0124891 -0.049226023 0.08011626 0.12924375
000040 ec 2e 61 3d 23 05 4e 3c c2 ac 7f 3c 2a b8 bd 3d
       0.05497639 0.012574467 0.0156051535 0.09263642
000050 43 d5 d7 3d 25 95 a6 3a 66 86 29 bc 0a f2 72 3b
       0.10538723 0.0012709243 -0.0103469845 0.0037070536
000060 f9 a8 ea bc cd c0 e7 bd 74 93 da 3d 97 6e b1 bd
       -0.028645026 -0.11316071 0.10672656 -0.086636715
000070 7a 6e 24 3d 6c 8c 93 3d c6 7a b2 bd 39 85 3c bd
       0.04014442 0.07204518 -0.087148234 -0.04602549
000080 9c 7d a0 3c 98 22 a7 bd 70 ee dc 3d 41 6a 72 3d
       0.019591145 -0.08160895 0.10787666 0.059183363
000090 b6 80 f4 bd b0 41 ea 3d 24 0b 09 3e e7 d1 c2 bd
       -0.11938612 0.1143831 0.13383156 -0.09512692
0000a0 6d 9a 0b bd 67 9d 8c 3d fa cc d2 bd 10 8f 04 be
       -0.03408282 0.068659596 -0.102930024 -0.12945199
0000b0 81 44 7c bd 5b e9 70 3e af fb 05 be ca cc 9e 3d
       -0.061588768 0.23526518 -0.13084291 0.07753904
0000c0 fb fa 62 bd 4a 96 00 3b 6c 34 23 bd d3 f4 a4 3d
       -0.055415135 0.001962083 -0.039844915 0.08054509
0000d0 c6 e7 0a be de 09 bc 3c a6 07 b8 bd 09 02 89 bd
       -0.13564977 0.022953924 -0.08985834 -0.06689841
0000e0 68 d4 b8 bd 41 da a8 3c 86 11 a1 3c 5c 13 bb bb
       -0.09024888 0.020611884 0.019661676 -0.005709095
0000f0 0f 96 35 3d e8 44 32 bd 9d f8 f7 bd a3 75 f5 3d
       0.04433256 -0.043522745 -0.12107966 0.11985328
000100 43 fe 7a 3d 45 6c 7a 3d 49 07 29 bc 08 fa 1a 3d
       0.06127764 0.06113841 -0.010316678 0.037836105
000110 d2 9c 36 3e 4c 84 a9 3c 53 f5 75 3d 44 5f 56 3d
       0.1783326 0.020692967 0.060048413 0.052336946
000120 26 b6 b7 3d 37 72 1b 3e 0c dc 61 bd 1d 6a 9a bb
       0.08970289 0.15180288 -0.055141494 -0.0047123567
000130 15 3f dd 3d ca 1f d2 3d f0 d2 75 3d f5 7a 4a 3c
       0.108030476 0.102599695 0.06001562 0.012358417
000140 e8 f6 3c 3c c1 02 68 3d 31 60 d7 bd a1 ee 06 bd
       0.011533476 0.05664325 -0.10516394 -0.032942418
000150 4f eb a7 3d 21 3d 77 bc 7d 17 94 bc a4 7d c9 3d
       0.081991784 -0.015090258 -0.018077606 0.09838417
000160 67 5e 54 3e 49 31 f9 3d 50 69 ae 3d a8 d1 5f bd
       0.20739137 0.121676035 0.085161805 -0.054643303
000170 07 a7 d4 3d 6e 40 0d be 3b c0 97 bd ec 22 71 3d
       0.103834204 -0.13794109 -0.07409712 0.058871195
000180 2a 98 6e 3d 04 bd 14 bd e6 1c 3e ba b0 a3 8b 3d
       0.058250584 -0.03631307 -0.0007252231 0.0681833
000190 f0 ea 09 3c 00 80 84 3d 15 43 e0 3d 24 6c 54 3d
       0.00841783 0.064697266 0.10950295 0.051860943
0001a0 4d b5 71 bc 0d 52 2c bb 1d 19 2e 3e f0 0e fe 3c
       -0.014752698 -0.0026294023 0.17001767 0.031012982
0001b0 a2 7e a4 3d 28 78 8c 3c d7 1d db 3d 8d 1e 39 be
       0.08031966 0.017147139 0.10699051 -0.1807806
0001c0 b5 04 bf 3a 9b 62 3f bc 23 0b 9e bc b3 00 2b bd
       0.0014573546 -0.011681224 -0.01929242 -0.041748714
0001d0 bb 67 44 3e de 5d de bb 63 cb c4 3d 7f d7 86 3d
       0.19180195 -0.006786092 0.096091054 0.06584071
0001e0 6a 5c 8b 3b 7b ee 72 3e 1c c7 82 bd 90 13 b5 3d
       0.00425296 0.23723786 -0.06385633 0.08841622
0001f0 57 87 1a 3e 30 d6 84 bc 2c 1f 6d 3c 10 c7 a0 bc
       0.1509069 -0.016215414 0.014472764 -0.01962617
000200 38 6c 30 3e 7a 74 13 bc 9b 28 41 bd f1 92 08 3e
       0.17228782 -0.008999938 -0.047157865 0.13337304
000210 98 83 a8 bb c2 b9 b7 bd d2 7c e3 bd d4 2f dd 3d
       -0.0051426403 -0.08970977 -0.11107792 0.10800138
000220 86 aa 5d 3e 65 97 6e bd 98 ff b1 3d 5a ba f2 3d
       0.21647081 -0.05824985 0.08691329 0.1185195
000230 3e 8a cc 3d 3e f1 ef bd 8f fb 07 be fd 61 20 3e
       0.09987305 -0.11715935 -0.13279556 0.1566238
000240 50 3a 9c 3d a8 32 27 be c7 1e c5 bd 36 af 2b be
       0.0762831 -0.16327918 -0.09625011 -0.16766056
000250 49 59 8e 3d 19 7b f1 bd 04 12 84 3c 33 94 b9 3c
       0.069506235 -0.11791057 0.016121872 0.022653675
000260 3b 3f cd bc 03 6c ff 3d 55 15 04 3d f7 65 c1 3d
       -0.025054565 0.124717735 0.032246906 0.094432764
000270 29 7c f9 bd 7b f8 6c 3d 23 18 df bd 4c 73 b6 bd
       -0.12181885 0.057854157 -0.108932756 -0.0890871
000280 eb ad 01 3d ec 39 dd bd 8c 3d 0d bd cd c6 86 3d
       0.03166 -0.10802063 -0.034482524 0.06580887
000290 ee 3a 2d 3d 20 2c f5 3d b7 c1 f0 bd 40 90 01 be
       0.042292528 0.11971307 -0.11755698 -0.12652683
0002a0 44 df ae bc ec 39 8f 3d 41 85 22 3d 02 0a f1 3d
       -0.021346696 0.069934696 0.039677862 0.11769487
0002b0 87 e2 59 bd 16 05 3e bd b7 0b dc bd b1 a6 5d 3d
       -0.05319455 -0.04639157 -0.10744422 0.054114047
0002c0 84 1b 3d be 88 42 a6 bd 9a b7 3f bd 1f 5f c6 3c
       -0.18467528 -0.081181586 -0.046805955 0.02421528
0002d0 0f 0e c5 3d ad 7b 3b bd d9 7f 4c bd fc 25 46 3d
       0.09621822 -0.045772243 -0.049926613 0.04837607
0002e0 50 fd da 3b 5c 28 71 3d a5 52 3d 3e 00 38 07 be
       0.0066830292 0.05887638 0.18488558 -0.13204956
0002f0 d7 23 18 be f4 99 4e 3c c2 72 03 be da 58 d7 3d
       -0.14857422 0.0126099475 -0.12836745 0.10514994
000300 8a ea a1 bd 4b 2b c6 3d ab 58 82 3d 21 84 df bd
       -0.07906063 0.09676226 0.06364568 -0.109138735
000310 14 8f 50 bd 2e 23 8f bd bd a0 f5 bd 00 3f ce bd
       -0.0509177 -0.06989132 -0.11993549 -0.1007061
000320 6b 7a a8 3d cc 26 0e ba 31 61 14 3d 30 ab 98 3c
       0.082264744 -0.00054226513 0.0362255 0.018636316
000330 2d d3 7a 3d d0 e9 f2 bd a4 20 d1 3d 23 af 0d 3e
       0.06123655 -0.118610024 0.10211304 0.1383634
000340 0d 5a a0 3d 62 a6 aa 3d f5 9d 0a 3e a9 20 ee bd
       0.07829676 0.08332516 0.13536818 -0.11627323
000350 91 f3 31 bd 0e f0 a2 3d 74 3f 18 3d 69 d6 60 3d
       -0.043445174 0.07955943 0.03716989 0.054891977
000360 95 43 9b 3d 9c e0 26 bc 38 3f 01 3e 3b 70 3b 3e
       0.075812496 -0.010185387 0.12621772 0.18304531
000370 13 09 d5 bc c9 19 99 bd cc 44 98 bd 22 e2 ae 3d
       -0.026005303 -0.07475621 -0.07434997 0.08539225
000380 97 72 e4 bd 40 3d d4 3c 57 34 92 3d 2e 37 ec 3c
       -0.11154669 0.025908113 0.07138889 0.028834905
000390 cc ab 8d 3d 90 e4 16 be 13 cb c6 3c 63 13 93 3d
       0.06917533 -0.14735627 0.024266755 0.07181432
0003a0 ba 3f 8e 3d aa 1a b3 bc 61 63 49 3e 14 28 b4 3d
       0.069457486 -0.0218633 0.19666816 0.08796707
0003b0 51 90 cc 3c 01 4c dd 3d cf 54 53 3d 4e 0c 80 bd
       0.02497116 0.10805512 0.05159455 -0.06252347
0003c0 35 9c 7f bd d2 e8 a2 3d 32 3b be bd c2 2c 5d 3c
       -0.06240483 0.07954563 -0.09288634 0.013499441
0003d0 cc ab 08 3d 26 90 4a bd 8b 13 20 bd f2 ef df 3c
       0.033366963 -0.049453877 -0.039081138 0.027336095
0003e0 c2 2e 84 bd 0b 99 b4 3c e0 c5 18 3d 9d f8 80 bd
       -0.06454231 0.022045633 0.037298083 -0.06297419
0003f0 f8 49 36 3d 35 55 ae bc 89 81 e7 3d 78 26 35 3d
       0.044504136 -0.021280864 0.11304004 0.04422614

net.2.weight f4 [128, 256]
000000 a8 bd 09 bd 9d 8a 4b bc a8 b7 2b 3d bd a0 3b bc
       -0.033628136 -0.012423185 0.041923195 -0.011451897
000010 c0 fb cc 3c a5 50 08 bd b0 27 1f bd b0 4d 3b bd
       0.025022388 -0.033280034 -0.03885621 -0.045728385
000020 c2 07 90 bd b9 5e ca 3a 3c 62 3f 3d dd b0 9e bd
       -0.0703273 0.0015439607 0.046724543 -0.07748578
000030 ed 5c 43 bd f0 87 fa bc 56 b0 8c bc f4 39 8e bb
       -0.047696043 -0.030582398 -0.017173927 -0.0043404046
000040 7c 78 8e 3c 58 b9 1e bd fc 43 3e bd 2b 38 b2 bd
       0.017391436 -0.038750976 -0.046451554 -0.087021194
000050 b0 c8 c7 bc 74 08 9d bc 70 b2 b7 3c 55 48 77 bd
       -0.024387687 -0.01916907 0.022423953 -0.060371716
000060 19 a7 3c 3d 13 08 a2 3c ec b4 58 bd f4 0a 12 3b
       0.046057794 0.01977924 -0.052906916 0.002228436
000070 40 da 3c 3c ee b8 57 bb ef ed 33 bd a3 e9 82 bd
       0.011526644 -0.0032916623 -0.043928083 -0.06392219
000080 f6 b6 02 3c 44 33 89 3b 56 d3 ff bc f1 ee 3e 3d
       0.007978192 0.0041870195 -0.031228703 0.04661459
000090 07 70 66 3c 9f 92 94 bd 25 4d a0 bd b2 71 61 bd
       0.014064795 -0.07254528 -0.07827214 -0.05504007
0000a0 04 96 80 bd b4 2a 50 bd 3d 1d f8 3c 17 c8 71 bd
       -0.06278613 -0.050821975 0.03028738 -0.05902871
0000b0 35 bb 9e bd ee 3c 71 3b b1 68 1e 3d ea 13 49 bd
       -0.07750551 0.0036809999 0.03867406 -0.049091257
0000c0 64 de b3 bc 3a e6 61 3d f8 75 63 bc e8 28 25 3d
       -0.02195663 0.0551512 -0.013883106 0.040322214
0000d0 1a d1 9d bd 70 76 51 bc 3a e2 3c 3c e8 84 64 3b
       -0.077058986 -0.012784585 0.011528546 0.0034869257
0000e0 10 34 97 ba 04 d4 52 bb 5f e5 c9 3b ea 87 85 3d
       -0.0011535902 -0.0032169828 0.0061613764 0.06520064
0000f0 98 8f 89 3c 0c 8e 43 bd a1 18 05 3d 6c 71 58 3c
       0.016792104 -0.04774289 0.03249419 0.013210636
000100 06 cd 57 3d 31 5e 73 bd 64 8b af 3c e0 aa a2 bd
       0.05268576 -0.059416 0.021428771 -0.07942748
000110 14 54 1c bd 55 d0 22 bc ed b0 9f bc 67 52 2b 3d
       -0.03816612 -0.009937366 -0.019493544 0.041826632
000120 18 8c 31 bd 81 81 7d bd ad 6e 2b bc 01 f6 91 bd
       -0.043346494 -0.061891083 -0.010463399 -0.07127
000130 15 0a 85 3c 12 0f 93 bd 0d 4b 47 bb e2 18 a6 bc
       0.016240159 -0.07180609 -0.0030409724 -0.020275537
000140 19 cd 76 bd 5c 57 21 bd a3 86 91 bd 59 2e 41 bb
       -0.06025419 -0.039389953 -0.07105758 -0.0029477088
000150 93 8f 40 bc 36 05 0d bd ea 42 8d bd dd e4 93 bc
       -0.011752981 -0.034428798 -0.068975285 -0.018053466
000160 1e 45 30 bd 6a 4e 1e bd 48 08 db 3c ce 6d 1c bd
       -0.043034665 -0.038649 0.026737347 -0.038190655
000170 c6 d0 04 3d c5 b7 3a 3d e5 b7 b7 bc dc 24 e9 bc
       0.032425664 0.045585413 -0.022426555 -0.028459959
000180 22 0b 82 3c a6 b7 00 bd 7c 94 f5 3c 08 29 fa 3a
       0.01587445 -0.03142514 0.02997803 0.0019085715
000190 a8 6f aa 3b 61 40 81 bb f5 10 5f 3d 92 78 a2 bd
       0.0052012987 -0.003944442 0.05445953 -0.07933153
0001a0 5f bf ca bc be 59 e3 3c a5 55 da 3c e0 56 08 bc
       -0.024749456 0.027752753 0.026652167 -0.008321494
0001b0 c1 de 91 bd 97 37 d1 bb 0d e6 34 bd 8a f2 20 3d
       -0.07122565 -0.0063848007 -0.044164706 0.039293803
0001c0 b2 fd 93 bd ea 4d a1 bd bd 9c 42 bd 4b b2 97 bd
       -0.07226123 -0.07876189 -0.04751276 -0.074070536
0001d0 1d ca c3 bd bd 63 3d bd 9f e8 01 bc 88 8b b0 bd
       -0.095600344 -0.046237696 -0.007928996 -0.086203635
0001e0 2f 6f 18 bb 68 9f 2b bd 5f da cd bb 36 99 4e bd
       -0.002325963 -0.04190007 -0.0062821354 -0.050439082
0001f0 7b f1 cd 3c 66 5a ab bb 03 e0 f5 3c 0b 7e 05 bd
       0.02513956 -0.005229282 0.030014044 -0.032590907
000200 dd 2e 31 bd 46 79 4b bc 33 93 80 bc bb 0d 8e 3c
       -0.043257583 -0.012419051 -0.01569519 0.017340532
000210 e9 74 32 bc da be 96 bd 8b ec 73 bd a5 14 fe 3c
       -0.010892131 -0.07360621 -0.059551757 0.031015703
000220 d8 3b ef 3c 90 bd 72 bd 40 ae 72 bd f9 ff f9 3c
       0.02920334 -0.059262812 -0.05924821 0.030517565
000230 33 d1 1d 3d 3b a6 4a bd 02 0a 17 bd 51 da 53 3c
       0.038529586 -0.049474936 -0.03687478 0.012930469
000240 63 6b 15 bd e6 6f 3a bc 3e 1c fb bc a5 d4 ea bc
       -0.036479365 -0.011379218 -0.030653115 -0.02866585
000250 0c f4 48 3d a4 60 fd bc 1f 3a 27 bd 46 4d 17 3d
       0.049060866 -0.03092987 -0.040826913 0.036938928
000260 7e 7f 74 bb 0e 04 b0 bb 32 cd 39 3d 35 38 16 bd
       -0.0037307437 -0.005371577 0.045361705 -0.036674697
000270 da 4f 05 3c 46 be ef bc 64 a3 72 3d 76 fb 91 bd
       0.008136714 -0.029265534 0.059237853 -0.071280405
000280 5f ea 48 ba ee c6 2e bd 9f 3f 32 bd fc 6c 23 3d
       -0.00076643185 -0.042670183 -0.043517705 0.039898857
000290 cd bf 87 3d a3 5e 4b 3d 80 92 ef 3b 53 30 94 bd
       0.0662838 0.0496508 0.0073111653 -0.072357796
0002a0 d4 e8 d1 bc ae d6 47 bb f0 8d 71 bd e2 0b 88 3c
       -0.025623716 -0.003049295 -0.058973253 0.016607229
0002b0 fb 8a b6 3c 0a 57 7d bd b4 fd ed 3c f7 d4 b9 bd
       0.022283068 -0.061850585 0.02905164 -0.09073823
0002c0 0c e4 7e 3d 11 99 bb bd fa 99 07 bd 4b 94 0a bd
       0.0622292 -0.091600545 -0.033105828 -0.03383283
0002d0 a5 de aa bc 18 e8 81 bd 2c 0e da bb 51 1e 02 bd
       -0.020858118 -0.063430965 -0.0066545215 -0.031767193
0002e0 ba db c7 bc 0c 52 62 3b 8a a3 89 bb 00 fd 71 bd
       -0.024396766 0.0034533767 -0.0042004036 -0.05907917
0002f0 56 87 01 3c 42 16 60 bd b9 49 04 bc c4 ad b5 bc
       0.007905802 -0.054708727 -0.0080742175 -0.022177584
000300 66 ae 5d bd d4 b2 d6 3c 0f 83 23 3d 66 ff 16 bc
       -0.054121397 0.026208319 0.03991991 -0.009216165
000310 d9 2a 8d bd 5f 8b 88 bd 35 cd ac bc f0 9f 8f bb
       -0.06892938 -0.06667208 -0.021093944 -0.0043830797
000320 73 cf be bd f4 e4 7c 3d 7f 73 7a bc 1f 92 3b bd
       -0.093169115 0.061741784 -0.0152863255 -0.04579365
000330 01 e9 3e 3c 78 9b 5c bd 6a f7 8e bd 4f 0c 6d 3b
       0.011652232 -0.053859204 -0.06980784 0.0036170667
000340 6c 97 ab bd a3 48 4c bd b2 25 d0 bd f0 2c 0d bc
       -0.08378491 -0.04987396 -0.1016344 -0.008616671
000350 a0 ce da bc 82 7e 33 3d 26 7c 77 bd f3 77 9a 3c
       -0.026709855 0.04382182 -0.06042113 0.018856024
000360 f2 c5 c3 3c ec bd 75 bb 11 b2 2c 3d d8 86 40 bd
       0.023898099 -0.0037497235 0.042162005 -0.047003597
000370 a3 39 83 bd 00 08 9b 38 34 c4 07 3d 2b 51 08 bd
       -0.06407478 7.392466e-05 0.0331461 -0.033280533
000380 7e d9 94 bd 68 0d 68 bc 23 1b 46 bd 7b ce 5d bd
       -0.07268046 -0.014163353 -0.048365723 -0.054151993
000390 67 c1 be bd 60 74 ce bc 5f da 32 bc 0b cc 5d bd
       -0.09314232 -0.025201976 -0.010916322 -0.05414967
0003a0 d7 d6 a8 bd 40 f5 4f bd ee af 6a bb 19 a0 a6 3c
       -0.082441024 -0.050770998 -0.0035810429 0.020340012
0003b0 a2 2b 33 bd d1 c7 4d 3c 83 e1 b3 bb fa dc a9 3c
       -0.043742783 0.012559847 -0.0054895296 0.020735253
0003c0 67 98 dc 3c 41 f3 f1 3c 01 29 65 bd e1 df 8e 3a
       0.02692814 0.029534938 -0.055947307 0.0010900461
0003d0 7d e9 15 bc b6 05 08 bd 2a 2c 56 bd 0e f2 4c bd
       -0.009149906 -0.03320857 -0.052288212 -0.05003553
0003e0 db eb 91 bd 58 48 3c bd 91 ce d8 3c 98 98 7c 3c
       -0.07125064 -0.04596743 0.026465686 0.015417241
0003f0 4e 4a e4 bc f0 a6 1e 3d 1c 68 12 bc 3c 88 1e bd
       -0.027867462 0.038733423 -0.008935954 -0.038704142

net.2.bias f4 [128]
000000 5a 6f 9c bd 84 ee 97 3b b6 fb 3f 3e d6 d7 a6 3e
       -0.07638426 0.0046365876 0.18748364 0.32586545
000010 93 62 5d 3e ce 5a 0c be 61 1c 9a 3e 23 bc 21 3e
       0.21619634 -0.13706514 0.30099776 0.15794425
000020 55 6d 8a 3e 4b d2 67 3c fa a6 c5 3d ec 7c a6 3d
       0.2703654 0.014149259 0.09650989 0.08129296
000030 5d fd 8b 3e d9 4a 51 3e aa 4b 48 bc 03 00 b1 3e
       0.27341738 0.20438708 -0.012225071 0.3457032
000040 c0 e4 a4 3e 10 09 95 3e 53 4b 28 3e 06 51 f6 bc
       0.32205772 0.29108477 0.16434984 -0.030067932
000050 7f 47 59 3d a2 4e d6 bc d7 3a f4 3c 91 21 56 3d
       0.0530467 -0.026160542 0.029813213 0.052278105
000060 66 7f 7e bc 80 c8 22 3e 49 a3 a8 3e 76 bb b8 3e
       -0.015533304 0.15896797 0.32937077 0.3608052
000070 d4 2e a7 3d ab ce 13 3e 01 54 c0 bb c4 8b 71 3e
       0.08163229 0.14434306 -0.005869389 0.23588473
000080 27 ec 06 3e 52 8d 97 3e a8 b7 d5 3d 87 84 62 3e
       0.13176022 0.29600006 0.1043542 0.22120868
000090 a0 56 98 bd ea 4b 18 3e 35 80 50 3e b3 d1 ab 3e
       -0.074383974 0.14872709 0.20361407 0.33558425
0000a0 4a d8 c3 3d 80 ee d8 3d 0a de 8e bd b4 ed 05 3e
       0.09562738 0.10592365 -0.06975944 0.13078958
0000b0 39 53 8d 3e 93 82 c3 3d 04 ed 92 bd 3d 28 51 3c
       0.27602556 0.095463894 -0.071741134 0.012765941
0000c0 74 ac 4a bd 2f 4e 05 3e 19 65 85 3e eb 8f c1 bd
       -0.04948087 0.13018106 0.26053694 -0.09451278
0000d0 f5 9d 3b 3d 03 f2 1a 3d f2 3b 8e bb bf e6 a7 bd
       0.045804936 0.037828457 -0.004340642 -0.08198308
0000e0 c4 6b 2a bd 55 3b 75 3e 98 81 5f 3d 4b 62 40 3e
       -0.04160668 0.23948415 0.05456695 0.18787496
0000f0 74 13 6a bc 04 c5 f3 bc b8 fe c3 3d 42 f3 43 3e
       -0.014286865 -0.02975703 0.09570068 0.19135764
000100 aa de 69 bc 92 f2 57 3e c7 a9 6e 3e 3d 70 48 3d
       -0.014274279 0.21088627 0.23306952 0.048935164
000110 ab 20 1b 3d 8a ff 54 3e d4 93 f0 bc f9 aa 66 bc
       0.03787295 0.20800605 -0.029367365 -0.014078849
000120 18 21 bb bd 0d d5 8a 3e c2 88 e3 bc 3d 53 e0 bc
       -0.091371715 0.2711567 -0.027775172 -0.027383441
000130 12 ce a7 3e 26 6c 95 3c 0b 75 a6 3e e6 d5 90 3d
       0.32774407 0.018240046 0.32511172 0.07072048
000140 b5 b7 61 3c 7d fb 5e 3e d3 8e 89 bd 59 c0 50 3e
       0.013776709 0.21775623 -0.06716695 0.20385875
000150 d9 7e 86 3e b4 b9 45 3e 00 a4 18 3d a7 78 92 bd
       0.26268652 0.19309121 0.037265778 -0.07151919
000160 c0 d5 9a bd 05 55 0a bd 44 7c 3f 3d fc b5 98 3e
       -0.07560301 -0.033772487 0.04674937 0.29826343
000170 4f dc 3a 3e 20 13 01 3e 02 ca 48 3e 27 0f d8 bd
       0.18248104 0.12604952 0.1960831 -0.10549765
000180 8c 84 83 3e 05 5a 41 3e 2e 84 73 3c 71 30 bd 3c
       0.25687063 0.18881996 0.014863057 0.023094388
000190 3d 1f 92 3e 09 4d 7c 3e 2b 98 ea 3d 6d 02 b7 bd
       0.28539458 0.24638762 0.11454805 -0.089360096
0001a0 fd eb 3c 3e b2 f9 91 bd 6a d6 8a bd fb bd 8e 3e
       0.18449397 -0.07127704 -0.067791775 0.2787932
0001b0 c7 4f b5 3e 9f 4f 5a 3d 23 31 c6 3e 2b 38 de 3d
       0.35412428 0.05329859 0.38709363 0.10850557
0001c0 77 2d 68 3d c3 ea 75 3e 56 4d 50 3d 1b d8 89 3e
       0.056683984 0.24015336 0.050855003 0.26922688
0001d0 3d 57 17 bd 05 ad 7d 3e 3d 98 a0 3e 63 f1 78 3d
       -0.03694843 0.24773033 0.3136615 0.06077708
0001e0 f4 70 7e 3e d3 f2 b2 bd d6 88 b2 3e 2e 20 84 bd
       0.24847776 -0.08737721 0.34870023 -0.0645145
0001f0 d6 ba 1f bc 51 45 f6 bc db 19 57 bd 8d c7 a9 bd
       -0.009749135 -0.03006235 -0.052514892 -0.082900144

net.4.weight f4 [4, 128]
000000 7e ee 97 bb 3e 8b 3f bd 58 1f 5e 3e 23 65 fc 3d
       -0.004636585 -0.04676365 0.21691644 0.12323978
000010 e1 a4 2d 3e 5c ee cf be 00 4c e5 3d 0c 75 8c 3e
       0.16957428 -0.4061154 0.111961365 0.2743305
000020 b0 2a 44 3e 8d f1 a0 3e 65 e2 53 bd a1 ea d6 be
       0.19156909 0.3143429 -0.05172958 -0.41975883
000030 90 60 2d 3e 4c fe 82 3e 6f 30 eb bb 11 f1 44 3e
       0.16931367 0.25584638 -0.0071774046 0.19232585
000040 f6 63 31 3e e7 ce 90 3b 4b 2e 01 3e d1 4d 35 3b
       0.17323288 0.004419196 0.12615316 0.002766479
000050 3e c8 db 3e bb 21 f8 bc 40 15 6a bd 51 f6 da 3e
       0.4292621 -0.030289521 -0.05714917 0.4276605
000060 b5 8e ae bd 59 b1 b8 3c c0 ec 24 3e f6 56 23 3e
       -0.08523313 0.022545503 0.16105938 0.15951142
000070 e3 59 2f 3f 7f ab 2a 3e 83 bf 9a 3c eb f2 b2 bd
       0.6849653 0.16666983 0.018890148 -0.08737739
000080 d3 70 4b 3e 8b fa 33 3e bc 0b 96 bd 92 9d 48 3e
       0.19867258 0.17576043 -0.07326457 0.19591358
000090 a2 67 44 3c 8d ff 51 3d 44 37 4a 3e 48 9e f4 3d
       0.011987599 0.051269103 0.19747645 0.11944252
0000a0 d0 46 8c 3d d9 f0 7d be 5f d9 45 bd 79 d1 4f 3e
       0.06849444 -0.24798907 -0.048303004 0.20294751
0000b0 c5 d8 37 3e f8 1e 47 3e 8a cd 33 bd fb ea 42 3f
       0.17953785 0.19445407 -0.04389719 0.761398
0000c0 05 aa 48 3d f2 5e b3 3e 83 b9 1c 3e 64 71 b6 bd
       0.04899027 0.35033375 0.15305142 -0.08908346
0000d0 c8 f4 ce 3e 36 cb bf 3e ef 96 eb bc 29 83 06 3d
       0.40421128 0.37459725 -0.028758494 0.032839928
0000e0 07 71 df 3e 0c 47 f1 3d 25 51 1b bf af 6b 6e 3e
       0.4364092 0.11781129 -0.6067069 0.23283266
0000f0 75 d5 12 3f 51 a6 94 3e 9f 87 6a bf ca 71 8a 3e
       0.5735696 0.2903314 -0.9161319 0.2703994
000100 b1 67 ff bc 4e 81 68 3e 58 1e 5b 3e db 47 ad 3e
       -0.031177374 0.22705576 0.21398294 0.33843884
000110 d3 e7 fa be 1f 0b 82 bd 13 fc 42 3c a4 ea 9d 3d
       -0.49004993 -0.063497774 0.0119009195 0.0771077
000120 60 0b a8 bc 1a 65 88 3d e4 fa 63 3d e7 80 2b 3d
       -0.020513237 0.066599086 0.05565919 0.041870978
000130 a7 0a b0 3d 94 87 13 bc 24 97 29 3e 80 8f 9c 3e
       0.08595782 -0.009004492 0.16561562 0.30578232
000140 72 e5 2a 3f a6 2f 2b 3d 9e 27 3e b9 4f 84 43 3e
       0.66756356 0.041793488 -0.0001813457 0.1909344
000150 e7 ea 50 3d f7 24 07 bc 74 75 c5 bf fb 50 91 3c
       0.05100527 -0.008248559 -1.5426469 0.01773881
000160 f9 ea fd bc fa b3 78 3d d1 65 4f bf d0 02 6e 3d
       -0.030995833 0.060718514 -0.81014735 0.05810815
000170 7a 54 ea 3d 34 62 3c 3e 16 85 ea 3c 6d ee ce bc
       0.11441894 0.18396837 0.028627913 -0.025260175
000180 c0 68 ea 3c d2 68 9f bd f3 c9 ba bd bd d3 ac bc
       0.028614402 -0.07783665 -0.0912055 -0.021097058
000190 d3 98 ec 3d 82 47 12 3e 80 96 e1 be 0c 63 98 bd
       0.115525864 0.1428509 -0.44060135 -0.07440767
0001a0 db 65 ea bd 57 a2 9e bd 6e d5 f1 bc 52 8d 7c 3d
       -0.11445209 -0.077458076 -0.029520717 0.06165821
0001b0 c6 b6 06 3e a6 69 12 3d 97 65 38 3e ff cd f7 3e
       0.1315566 0.035745285 0.18007503 0.4839935
0001c0 80 e4 01 3f 74 0b b6 3d 27 be 75 3e 78 d0 44 3e
       0.5073929 0.08888903 0.23998319 0.1922015
0001d0 b8 1a 8d bd df b3 60 3e 15 9b 13 3e e5 47 9b bd
       -0.06889862 0.21943615 0.14414628 -0.07582072
0001e0 d8 2b 00 3c 89 08 43 3d a7 5a e1 3d d1 17 c2 3e
       0.007822953 0.04761556 0.11003619 0.37908795
0001f0 3d 6e 31 bc 90 e5 6e 3b 9c b3 77 3d 50 13 66 3d
       -0.0108295055 0.0036452748 0.060474023 0.05617076
000200 c1 7c 39 bd 49 d5 e6 3c e9 92 b8 3d 93 c2 31 3e
       -0.04528499 0.028177874 0.09012396 0.1735938
000210 4d f8 2c 3e 03 94 05 3e 20 36 42 3e 2b 8a 83 bd
       0.16891594 0.13044743 0.1896596 -0.06422838
000220 46 2e fc 3d 8e f5 bf be 58 4c 17 3d 54 56 3c 3e
       0.123135135 -0.3749203 0.03693804 0.18392307
000230 72 ba af bc 8c b3 b9 3c f5 65 d4 bc 52 19 42 3e
       -0.021451209 0.022668622 -0.025927523 0.18954971
000240 04 76 0e 3e 04 a6 63 3e 61 59 62 3d 47 4e 21 bd
       0.13912207 0.22231299 0.05526102 -0.03938129
000250 f2 c5 a7 bd 61 1c da 3c 5b ee b8 3c 9e b6 0e 3f
       -0.08192052 0.02662486 0.022574594 0.557474
000260 65 20 62 bd 23 af 8c 3e d6 38 74 3e b9 9b 2b 3e
       -0.055206675 0.2747737 0.23849806 0.16758622
000270 85 61 2d 3f 03 08 17 3e 9a b4 56 3d f0 1c e2 3d
       0.6772693 0.1474915 0.05241833 0.11040676
000280 d5 99 d8 bd cc 27 21 3e ed 78 86 3f ed 47 46 3e
       -0.10576216 0.15737838 1.0505654 0.19363375
000290 35 34 88 bd 5c e6 1d 3d a2 f9 d7 3b 2e 67 1f 3e
       -0.06650583 0.038549766 0.006591038 0.15566704
0002a0 85 59 3f be 9f d1 1e 3f 36 9b 11 3d 8e 25 99 3e
       -0.18686493 0.62038606 0.03554841 0.29911464
0002b0 96 18 62 3e 47 b4 1d bd 4d 5e 4b bd c7 39 91 be
       0.22079691 -0.038502004 -0.04965048 -0.28364393
0002c0 3d e8 34 3c 44 6b f0 bd 31 98 57 3e c4 f4 0e be
       0.011041698 -0.11739209 0.2105415 -0.13960558
0002d0 1d e1 be be 0c 77 a8 3e 98 28 13 3c 63 f0 f4 3b
       -0.37281123 0.32903326 0.008981846 0.0074749454
0002e0 c3 c7 6d bf 69 c5 6d 3e 68 5a 3d bf 79 9e 6e bb
       -0.9288294 0.23219837 -0.73966074 -0.0036410375
0002f0 9d 65 b2 bb fa 07 e8 3e 1a 24 da 3d 87 e8 14 3d
       -0.005444242 0.45318586 0.10651417 0.036354568
000300 95 c4 93 3d 5c 8b e2 3d c1 ec dc 3d 94 fe 53 3f
       0.072152294 0.11061737 0.10787345 0.8281033
000310 3b f7 90 3e f2 41 3a 3d cc 11 e9 3c 2f ae 8e bd
       0.28313622 0.045473047 0.028450869 -0.06966817
000320 12 f7 9c 3c f7 cd 60 3e 98 ab c9 ba 56 21 c6 bc
       0.019160781 0.2195357 -0.0015386222 -0.024185818
000330 a8 77 e3 3d 39 d5 a3 bc 67 f3 3c 3e 54 92 d6 bd
       0.11106807 -0.019999133 0.18452226 -0.104771286
000340 f0 7c 3a 3e fa 05 f5 3c 89 18 88 3d c2 6b e1 bd
       0.18211722 0.029910076 0.06645305 -0.11006881
000350 07 11 a5 3e 51 72 e1 bd e3 08 c0 3e 21 b4 11 bb
       0.32239553 -0.11008132 0.3750678 -0.002223261
000360 e3 11 59 3d a8 02 df bd 78 9f b9 3e 08 ec 58 3e
       0.052995574 -0.108891785 0.36254478 0.21183789
000370 06 19 00 3d 81 76 b3 3e 4c 13 e9 3e cb 66 d3 bc
       0.031273864 0.3505135 0.45522535 -0.025805851
000380 74 fb 4e 3e a2 15 91 3e ce a7 16 bf ff 13 2c bd
       0.20213109 0.28336817 -0.588498 -0.042011257
000390 16 5e 3e 3c 65 12 26 bd 65 b8 3d be 38 ce 22 bd
       0.0116191115 -0.040544886 -0.18527372 -0.039747447
0003a0 ee 94 73 3d 1f 14 89 bd f2 c3 e5 bc f9 ca 3a 3e
       0.059468202 -0.06693291 -0.028047536 0.1824149
0003b0 f1 62 4a 3e 87 02 07 be 44 df 17 3e 03 ba 8c bd
       0.19764306 -0.13184558 0.14831263 -0.068714164
0003c0 95 f1 e1 bb 83 3a 61 3e 8f e1 94 3e da ec 20 3e
       -0.006895254 0.21994977 0.29078338 0.15715352
0003d0 11 c5 60 bc a4 90 7e 3c dc 71 5a 3e 81 76 dc 3e
       -0.013718859 0.015537415 0.21332496 0.4305916
0003e0 07 76 6d 3e cd a6 a4 3d da fd 4b 3e 83 b6 9e bf
       0.23189555 0.08039627 0.19921055 -1.2399448
0003f0 1e a0 96 bc 0f 26 72 3c 27 ea 18 bd 53 8b b9 bc
       -0.018386897 0.014779582 -0.03733268 -0.022649443

net.4.bias f4 [4]
000000 72 47 4a 3e 2b 57 ac 3e 98 df b9 3e 7a d0 25 3e
       0.19753817 0.33660254 0.363034 0.16192809
